…
 please use pyarrow.fs.HadoopFileSystem instead.
11.2s 2 from pyarrow import HadoopFileSystem
13.6s 3 Collecting natsort
14.1s 4 Downloading natsort-8.1.0-py3-none-any.whl (37 kB)
20.1s 5 Installing collected packages: natsort
20.3s 6 Successfully installed natsort-8.1.0
20.3s 7 [33mWARNING: Running pip as the 'root' user can result in broken permissions and conflicting behaviour with the system package manager. It is recommended to use a virtual environment instead: https://pip.pypa.io/warnings/venv[0m
22.7s 8 Random Seed:  999
31.2s 9 Discriminator(
31.2s 10 (main): Sequential(
31.2s 11 (0): Conv2d(3, 64, kernel_size=(4, 4), stride=(2, 2), padding=(1, 1), bias=False)
31.2s 12 (1): LeakyReLU(negative_slope=0.2, inplace=True)
31.2s 13 (2): Conv2d(64, 128, kernel_size=(4, 4), stride=(2, 2), padding=(1, 1), bias=False)
31.2s 14 (3): BatchNorm2d(128, eps=1e-05, momentum=0.1, affine=True, track_running_stats=True)
31.2s 15 (4): LeakyReLU(negative_slope=0.2, inplace=True)
31.2s 16 (5): Conv2d(128, 256, kernel_size=(4, 4), stride=(2, 2), padding=(1, 1), bias=False)
31.2s 17 (6): BatchNorm2d(256, eps=1e-05, momentum=0.1, affine=True, track_running_stats=True)
31.2s 18 (7): LeakyReLU(negative_slope=0.2, inplace=True)
31.2s 19 (8): Conv2d(256, 512, kernel_size=(4, 4), stride=(2, 2), padding=(1, 1), bias=False)
31.2s 20 (9): BatchNorm2d(512, eps=1e-05, momentum=0.1, affine=True, track_running_stats=True)
31.2s 21 (10): LeakyReLU(negative_slope=0.2, inplace=True)
31.2s 22 (11): Conv2d(512, 1, kernel_size=(4, 4), stride=(1, 1), bias=False)
31.2s 23 (12): Sigmoid()
31.2s 24 )
31.2s 25 )
31.3s 26 Generator(
31.3s 27 (main): Sequential(
31.3s 28 (0): ConvTranspose2d(100, 512, kernel_size=(4, 4), stride=(1, 1), bias=False)
31.3s 29 (1): BatchNorm2d(512, eps=1e-05, momentum=0.1, affine=True, track_running_stats=True)
31.3s 30 (2): ReLU(inplace=True)
31.3s 31 (3): ConvTranspose2d(512, 256, kernel_size=(4, 4), stride=(2, 2), padding=(1, 1), bias=False)
31.3s 32 (4): BatchNorm2d(256, eps=1e-05, momentum=0.1, affine=True, track_running_stats=True)
31.3s 33 (5): ReLU(inplace=True)
31.3s 34 (6): ConvTranspose2d(256, 128, kernel_size=(4, 4), stride=(2, 2), padding=(1, 1), bias=False)
31.3s 35 (7): BatchNorm2d(128, eps=1e-05, momentum=0.1, affine=True, track_running_stats=True)
31.3s 36 (8): ReLU(inplace=True)
31.3s 37 (9): ConvTranspose2d(128, 64, kernel_size=(4, 4), stride=(2, 2), padding=(1, 1), bias=False)
31.3s 38 (10): BatchNorm2d(64, eps=1e-05, momentum=0.1, affine=True, track_running_stats=True)
31.3s 39 (11): ReLU(inplace=True)
31.3s 40 (12): ConvTranspose2d(64, 3, kernel_size=(4, 4), stride=(2, 2), padding=(1, 1), bias=False)
31.3s 41 (13): Tanh()
31.3s 42 )
31.3s 43 )
133.7s 44 [0/20][100/1583]	Loss_D: 0.0810	Loss_G: 5.2818	D(x): 0.9964	D(G(z)): 0.0645
222.3s 45 [0/20][200/1583]	Loss_D: 0.1120	Loss_G: 5.3055	D(x): 0.9423	D(G(z)): 0.0331
311.0s 46 [0/20][300/1583]	Loss_D: 0.1709	Loss_G: 5.6484	D(x): 0.9415	D(G(z)): 0.0457
403.0s 47 [0/20][400/1583]	Loss_D: 0.0423	Loss_G: 7.0097	D(x): 0.9796	D(G(z)): 0.0136
…
